Assignment_4/cifar10_softwmaxRegression.pth (torch, 42023 bytes, 2 tensors)

linear.weight f4 [10, 1024]
0	0x3c3b734e	0.011441065
1	0x3b85b854	0.0040808115
2	0xbb009fa6	-0.0019626408
3	0xb70296fa	-7.783756e-06
4	0x3ab0caff	0.0013488232
5	0x3abd16d3	0.0014426358
6	0xba618dcd	-0.0008604199
7	0xbbafb891	-0.005362578
8	0xbc15cbe4	-0.00914285
9	0xbc37f117	-0.011226914
10	0xbc432bb0	-0.011912271
11	0xbc307e65	-0.010772322
12	0xbc24f4b9	-0.010068112
13	0xbc28cfe7	-0.010303474
14	0xbc62a353	-0.013832885
15	0xbc898e99	-0.016791629
16	0xbc8094fd	-0.015696043
17	0xbc361ad0	-0.011114791
18	0xbc2ab499	-0.010419034
19	0xbc3be1ed	-0.011467439
20	0xbc1900e3	-0.00933859
21	0xbc1a6175	-0.00942265
22	0xbbea5f52	-0.0071524763
23	0xbbd7df10	-0.0065878704
24	0xbbab78b5	-0.0052328953
25	0xbb48b87b	-0.0030627537
26	0xba7302f3	-0.0009270154
27	0xb91afbbf	-0.00014780367
28	0xb9b2d6c0	-0.00034110807
29	0xba55f927	-0.0008162432
30	0x3b8484ed	0.0040441663
31	0x3c2a3bc6	0.010390228
32	0x3c6d157f	0.014470457
33	0x3bd68ce7	0.0065475586
34	0xb9bef33c	-0.00036420848
35	0x3b68a371	0.003549781
36	0x3ba9a6c1	0.0051773493
37	0x3b298fe1	0.0025873112
38	0x3b311c5b	0.0027024958
39	0x3a457a5f	0.00075331883
40	0xbb3f289a	-0.0029168488
41	0xbb990b53	-0.0046705394
42	0xbb9a46ae	-0.0047081327
43	0xbacf6014	-0.001582148
44	0xba7969c1	-0.0009514355
45	0x3a11cf06	0.000556216
46	0xbabd3780	-0.0014436096
47	0xbb9cf6e8	-0.0047901757
48	0xbbe02486	-0.0068402914
49	0xbb8931bd	-0.0041868375
50	0xbacd10fd	-0.0015645322
51	0xbb7b7fde	-0.0038375775
52	0xbb97f080	-0.004636824
53	0xbb8cdbe0	-0.004298672
54	0xb9d23e9d	-0.00040100972
55	0xb9a7e1e4	-0.00032021024
56	0x39da64e9	0.00041655384
57	0x3a6b958a	0.00089868216
58	0x3b30ae91	0.0026959518
59	0x3b222765	0.002474272
60	0x3a967603	0.0011479262
61	0xbb0242d1	-0.0019876251
62	0x3ba51021	0.005037323
63	0x3c743d42	0.014907183
64	0x3c4104a1	0.011780889
65	0x3b810958	0.0039378814
66	0xbb46f523	-0.0030358515
67	0xbae81f43	-0.0017709512
68	0x3b519a84	0.0031982968
69	0xba5d4f2f	-0.000844228
70	0x39c697b2	0.00037878525
71	0xb904b7f8	-0.00012657035
72	0xbaa4a753	-0.0012562074
73	0xbb231dc2	-0.0024889563
74	0xbbc8b5d7	-0.0061251926
75	0xbbac103d	-0.005250959
76	0xbb865c88	-0.004100386
77	0xbb309438	-0.0026943814
78	0xbb59540c	-0.0033161668
79	0xbb8a6d0d	-0.0042244256
80	0xbbb4e940	-0.0055209696
81	0xbb82dd12	-0.003993639
82	0xbb1f36e2	-0.0024294187
83	0xbbae85cb	-0.005326008
84	0xbbbe2bb9	-0.005803552
85	0xbbaef27b	-0.0053389645
86	0x3a1bb5c3	0.00059398654
87	0x3aca4c60	0.0015434138
88	0x3a05c7e6	0.00051033346
89	0x3a361db6	0.00069471763
90	0x3b9f14a4	0.0048547555
91	0x3bb26406	0.0054440526
92	0xba7d5892	-0.0009664382
93	0xbbab147b	-0.0052209473
94	0x3ac510ff	0.0015034972
95	0x3c6e01a6	0.01452676
96	0x3c5177e3	0.012784931
97	0x3bcd1f89	0.006259863
98	0xba40cb95	-0.0007354555
99	0xbae1d657	-0.0017230016
100	0x3aea06b7	0.0017854784
101	0x3b2b6d53	0.0026157692
102	0x3be837a9	0.0070867133
103	0x3baaab93	0.0052084415
104	0x3b1d8b6d	0.0024039403
105	0x3a171ea6	0.000576476
106	0xbb5905ff	-0.0033115146
107	0xbba7cd92	-0.0051209414
108	0xbba15dd4	-0.0049245153
109	0xba9a3bac	-0.0011767051
110	0xbafaa4bd	-0.0019122582
111	0xbae7b3c3	-0.0017677475
112	0xb991eb78	-0.00027831993
113	0x3b69c4c1	0.0035670253
114	0x3b54f2fb	0.003249346
115	0x38cae2d9	9.674364e-05
116	0x3b071ae7	0.00206154
117	0x3b83aa4b	0.0040181032
118	0x3bb3578e	0.005473084
119	0x3b83aace	0.0040181642
120	0x3b1fb6d7	0.0024370456
121	0x3a27178f	0.0006374055
122	0x3b939adc	0.0045045447
123	0x3b7cef26	0.0038594692
124	0xbbaa2c65	-0.0051932805
125	0xbbe24872	-0.006905609
126	0x3b292a63	0.0025812618
127	0x3c7dd0ce	0.015491677
128	0x3c4c7149	0.012478181
129	0x3b503947	0.0031772421
130	0x39c47bd4	0.00037476292
131	0xbad118a8	-0.0015952783
132	0x3ab58617	0.0013849166
133	0x3ba901ca	0.005157684
134	0x3c068284	0.008209828
135	0x3bd4ad7c	0.0064904075
136	0x3bb66d95	0.0055672624
137	0x3bcb43f9	0.0062031713
138	0xb98f92f7	-0.00027384583
139	0xbb134fa4	-0.002247789
140	0xbaa0ec14	-0.0012277388
141	0x3b446ac5	0.0029970866
142	0x3b44f3f1	0.0030052627
143	0x3a91395c	0.0011079716
144	0x3b5b5486	0.0033467128
145	0x3bae5b7d	0.005320965
146	0x3b60cd91	0.0034302215
147	0x3bf445ba	0.007454601
148	0x3c1db57f	0.009625792
149	0x3c1bb445	0.009503429
150	0x3c44ee0d	0.012019646
151	0x3c25669f	0.010095268
152	0x3c05ad91	0.008159057
153	0x3bca6610	0.0061767176
154	0x3bf4eebe	0.0074747493
155	0x3bb1146c	0.005404046
156	0xbb5d7bc6	-0.0033795699
157	0xbb0e4b4d	-0.0021712363
158	0x3bdc26d5	0.0067184963
159	0x3c83c945	0.016087184
160	0x3c5eab8c	0.013590705
161	0x3b4799bc	0.0030456623
162	0x3a4ef00b	0.00078940456
163	0x3b4ebfd4	0.0031547444
164	0x3b3eb1c7	0.0029097663
165	0x3bbf048b	0.005829399
166	0x3c4bcb56	0.012438616
167	0x3c318a90	0.0108362585
168	0x3c07c9aa	0.008287827
169	0x3c2da90e	0.010599388
170	0x3ba10790	0.0049142316
171	0x3beee75f	0.007290765
172	0x3c2e373e	0.010633288
173	0x3c3ee2c3	0.011650744
174	0x3c006826	0.007837331
175	0x3bd9be79	0.0066450206
176	0x3c2188c6	0.0098592695
177	0x3c28cbc9	0.010302492
178	0x3c1ac308	0.009445913
179	0x3c169b69	0.009192326
180	0x3c63184d	0.013860774
181	0x3c56191a	0.013067508
182	0x3c2c792a	0.010526935
183	0x3c2b838f	0.010468378
184	0x3c2a4c3c	0.010394152
185	0x3c1feb0e	0.009760631
186	0x3c054589	0.008134254
187	0x3bb52c30	0.005528949
188	0x3b37516b	0.0027972113
189	0x3b22d5c6	0.0024846657
190	0x3c2a8d47	0.01040966
191	0x3c9dbeae	0.019255962
192	0x3c60b0ff	0.013714074
193	0x3bd79ced	0.0065799863
194	0x39e2f540	0.00043288805
195	0x39d0a2c1	0.00039794113
196	0x3b17bcd9	0.0023153333
197	0x3be63dad	0.0070263953
198	0x3c88ed0a	0.016714592
199	0x3c9180a6	0.01776154
200	0x3c53362c	0.012891334
201	0x3c5df12f	0.013546272
202	0x3c3ec501	0.011643649
203	0x3c5f4099	0.013626241
204	0x3c816c8f	0.015798835
205	0x3c5e09e2	0.013552161
206	0x3c0b6e04	0.0085101165
207	0x3c067378	0.008206241
208	0x3c4d2173	0.012520182
209	0x3c5a70d5	0.013332565
210	0x3c4446a2	0.011979731
211	0x3c362276	0.011116615
212	0x3c8cd5b5	0.017191747
213	0x3c59307f	0.013256191
214	0x3c0ca8b9	0.0085851485
215	0x3c004002	0.007827761
216	0x3c4e566c	0.012593847
217	0x3c6b4c87	0.014361507
218	0x3bfd9c51	0.0077395816
219	0x3baf26af	0.0053451876
220	0x3b343f08	0.002750339
221	0x3927d2a8	0.00016004837
222	0x3bdf5422	0.0068154493
223	0x3c842f9a	0.01613598
224	0x3c724e53	0.014789182
225	0x3be91798	0.0071134083
226	0x3b12fefa	0.002242981
227	0xbbd7b2a9	-0.0065825772
228	0xbaed6df6	-0.0018114436
229	0x3ba8d166	0.0051519154
230	0x3c58530c	0.013203394
231	0x3cab2236	0.020890336
232	0x3c883189	0.016625183
233	0x3c55b143	0.013042751
234	0x3c3e602e	0.011619611
235	0x3c8295f8	0.015940651
236	0x3c8e6795	0.017383376
237	0x3c46622e	0.012108369
238	0x3c28ed40	0.010310471
239	0x3c4c0c66	0.012454128
240	0x3c299f5b	0.010352935
241	0x3c183c18	0.009291671
242	0x3c196872	0.009363281
243	0x3c6cc6aa	0.014451662
244	0x3c998db3	0.018744325
245	0x3c496c00	0.012293816
246	0x3bf427b0	0.00745102
247	0x3bbcd9ba	0.0057632597
248	0x3c7dea41	0.015497745
249	0x3c8bd2a0	0.017068207
250	0x3c136819	0.008996987
251	0x3bb33ffe	0.005470275
252	0x39379e76	0.00017511271
253	0xba5f1619	-0.0008510068
254	0x3bfb8443	0.007675679
255	0x3ca2778c	0.019832395

linear.bias f4 [10]
0	0xbebecea5	-0.37267032
1	0x3e0161c7	0.12634955
2	0x3d828594	0.06373134
3	0x3d86805e	0.06567453
4	0x3e1de9a1	0.15421154
5	0xbd8e44ac	-0.06946692
6	0x3e51f3fa	0.20503226
7	0x3dcbae7a	0.09945388
8	0xbe90a890	-0.28253603
9	0x3c277102	0.010219814
